…
 A próxima camada é a camada LSTM com 100 neurônios.

 Finalmente, porque este é um problema de classificação, usamos uma camada Dense camada de saída com um único neurônio e,
 
 uma função de ativação sigmóide para fazer previsões 0 ou 1 para as duas classes (boas e ruins) no problema.

 Como é um problema de classificação binária, a função de loss é usada como a função binary-crossentrop.
_________________________________________________________________
Layer (type)                 Output Shape              Param #   
=================================================================
embedding (Embedding)        (None, 500, 32)           160000    
_________________________________________________________________
dropout (Dropout)            (None, 500, 32)           0         
_________________________________________________________________
lstm (LSTM)                  (None, 100)               53200     
_________________________________________________________________
dropout_1 (Dropout)          (None, 100)               0         
_________________________________________________________________
dense (Dense)                (None, 1)                 101       
=================================================================
Total params: 213,301
Trainable params: 213,301
Non-trainable params: 0

Accuracy: 83.77%